…
      "outputs": [
        {
          "output_type": "stream",
          "name": "stdout",
          "text": [
            "Model: \"CnDModel\"\n",
            "_________________________________________________________________\n",
            " Layer (type)                Output Shape              Param #   \n",
            "=================================================================\n",
            " InputLayer (InputLayer)     [(None, 180, 180, 3)]     0         \n",
            "                                                                 \n",
            " RF (RandomFlip)             (None, 180, 180, 3)       0         \n",
            "                                                                 \n",
            " RR (RandomRotation)         (None, 180, 180, 3)       0         \n",
            "                                                                 \n",
            " RZ (RandomZoom)             (None, 180, 180, 3)       0         \n",
            "                                                                 \n",
            " Rescaling_Layer (Rescaling)  (None, 180, 180, 3)      0         \n",
            "                                                                 \n",
            " Conv2D1 (Conv2D)            (None, 178, 178, 32)      896       \n",
            "                                                                 \n",
            " MaxPool1 (MaxPooling2D)     (None, 89, 89, 32)        0         \n",
            "                                                                 \n",
            " Conv2D2 (Conv2D)            (None, 87, 87, 64)        18496     \n",
            "                                                                 \n",
            " MaxPool2 (MaxPooling2D)     (None, 43, 43, 64)        0         \n",
            "                                                                 \n",
            " Conv2D3 (Conv2D)            (None, 41, 41, 128)       73856     \n",
            "                                                                 \n",
            " MaxPool3 (MaxPooling2D)     (None, 20, 20, 128)       0         \n",
            "                                                                 \n",
            " Conv2D4 (Conv2D)            (None, 18, 18, 256)       295168    \n",
            "                                                                 \n",
            " MaxPool4 (MaxPooling2D)     (None, 9, 9, 256)         0         \n",
            "                                                                 \n",
            " Conv2D5 (Conv2D)            (None, 7, 7, 256)         590080    \n",
            "                                                                 \n",
            " Flatten (Flatten)           (None, 12544)             0         \n",
            "                                                                 \n",
            " dropout_2 (Dropout)         (None, 12544)             0         \n",
            "                                                                 \n",
            " OutputLayer (Dense)         (None, 1)                 12545     \n",
            "                                                                 \n",
            "=================================================================\n",
            "Total params: 991,041\n",
            "Trainable params: 991,041\n",
            "Non-trainable params: 0\n",
            "_________________________________________________________________\n"
          ]
        }
…
      "outputs": [
        {
          "output_type": "stream",
          "name": "stdout",
          "text": [
            "Model: \"model\"\n",
            "_________________________________________________________________\n",
            " Layer (type)                Output Shape              Param #   \n",
            "=================================================================\n",
            " InputLayer (InputLayer)     [(None, 180, 180, 3)]     0         \n",
            "                                                                 \n",
            " RF (RandomFlip)             (None, 180, 180, 3)       0         \n",
            "                                                                 \n",
            " RR (RandomRotation)         (None, 180, 180, 3)       0         \n",
            "                                                                 \n",
            " RZ (RandomZoom)             (None, 180, 180, 3)       0         \n",
            "                                                                 \n",
            " Rescaling_Layer (Rescaling)  (None, 180, 180, 3)      0         \n",
            "                                                                 \n",
            " Conv2D1 (Conv2D)            (None, 178, 178, 32)      896       \n",
            "                                                                 \n",
            " MaxPool1 (MaxPooling2D)     (None, 89, 89, 32)        0         \n",
            "                                                                 \n",
            " Conv2D2 (Conv2D)            (None, 87, 87, 64)        18496     \n",
            "                                                                 \n",
            " MaxPool2 (MaxPooling2D)     (None, 43, 43, 64)        0         \n",
            "                                                                 \n",
            " Conv2D3 (Conv2D)            (None, 41, 41, 128)       73856     \n",
            "                                                                 \n",
            " MaxPool3 (MaxPooling2D)     (None, 20, 20, 128)       0         \n",
            "                                                                 \n",
            " Conv2D4 (Conv2D)            (None, 18, 18, 256)       295168    \n",
            "                                                                 \n",
            " MaxPool4 (MaxPooling2D)     (None, 9, 9, 256)         0         \n",
            "                                                                 \n",
            " Conv2D5 (Conv2D)            (None, 7, 7, 256)         590080    \n",
            "                                                                 \n",
            "=================================================================\n",
            "Total params: 978,496\n",
            "Trainable params: 978,496\n",
            "Non-trainable params: 0\n",
            "_________________________________________________________________\n"
          ]
        }
…
